Project3/server/mnist_model.pth (torch, 180807 bytes, 10 tensors)

conv1.weight f4 [6, 1, 5, 5]
000000 3b 15 91 3e b7 ea 4e be 99 c4 12 bf 15 1c 24 bd
       0.2833651 -0.20206724 -0.57331234 -0.040065844
000010 3e 56 88 bd 68 28 fe 3c 00 3d 15 bf 5e 67 25 bf
       -0.066570744 0.031025127 -0.58296204 -0.6461085
000020 54 25 15 3e 15 70 a2 3e 10 3d fa be 01 ab 3e bf
       0.14565021 0.31726137 -0.48874712 -0.7447968
000030 25 a2 9c be ad 45 e0 3e 25 9d 10 3f ed ee f9 be
       -0.30592456 0.43803158 0.56489784 -0.48815098
000040 9c 71 01 bf 94 b6 62 3d af 40 17 3f 38 63 14 3f
       -0.5056398 0.0553499 0.59083074 0.57963896
000050 47 0e f4 be e1 3c 9f be 7c 6f 40 3d 8b 2b 93 3e
       -0.47667143 -0.31101134 0.04698132 0.28744158
000060 d9 cc 8c 3e 7c a8 9a 3d 24 c9 51 3d ec b7 88 3e
       0.27500036 0.07551667 0.051217213 0.2670282
000070 d8 91 dc 3e 6f 8b 30 3e 58 39 a2 3e e5 50 b5 3e
       0.4308002 0.1724069 0.31684375 0.3541328
000080 d2 e6 22 3f 0a 16 0b 3e 26 93 d6 be 38 0c f1 3e
       0.63633454 0.13582626 -0.4190914 0.47079635
000090 42 88 f0 3e 3c ef 97 3e d5 41 c8 be 88 a7 25 bf
       0.46978956 0.2967471 -0.39112726 -0.6470876
0000a0 6c 0b 39 3e dd ee 7f 3e d2 6f 18 bd 6d 81 34 bf
       0.18070763 0.24993463 -0.037216015 -0.7050999
0000b0 f8 18 02 bf aa 2c 44 bc d6 e3 fc bd 5c 0e ff be
       -0.5081935 -0.011973539 -0.12348144 -0.49815643
0000c0 48 63 3a bf 04 10 42 be 66 1f b3 3d 92 1a 9d 3e
       -0.7280774 -0.18951422 0.08746223 0.30684334
0000d0 a8 73 94 3e 85 20 d7 3e bc 18 a6 3e 93 91 92 3e
       0.2899449 0.42016998 0.32440746 0.2862669
0000e0 0f 02 0c 3f 75 fd 17 3f 33 10 13 3f 13 d2 a1 3e
       0.5469064 0.5937112 0.57446593 0.31605586
0000f0 6d 71 86 bc 74 9d 19 3e b1 6c 9c bd f3 1b 11 3e
       -0.016411508 0.1500147 -0.07637919 0.14170818
000100 b9 38 cc 3e 97 7a f7 be f7 d9 83 bf fb b4 ac bf
       0.39887026 -0.48335716 -1.0300893 -1.3492731
000110 6d 3d 16 bf b3 97 09 be c7 9f 8a bd c8 97 30 be
       -0.5868748 -0.13436775 -0.06768756 -0.172454
000120 85 3b 9e be ae 9e 25 be d0 ff 1a be 55 b7 bc be
       -0.30904785 -0.16173813 -0.15136647 -0.3685862
000130 97 a1 27 3e 5d 8c 10 3f a8 e4 b4 3e 85 fc e0 bd
       0.16370235 0.5646418 0.353307 -0.10985664
000140 dc 8a cd bd 00 d7 1c bd f2 2c df 3e 62 ce 2f 3f
       -0.10036251 -0.038290977 0.43588978 0.6867429
000150 2b 54 29 3e 47 de 37 be eb 9c f0 be 23 db 33 3d
       0.16536014 -0.17955886 -0.4699472 0.043910157
000160 3e 28 18 3f 78 cf 90 3e f1 cb 8a be d8 18 fd be
       0.59436405 0.28283286 -0.2710872 -0.49433017
000170 09 30 bd be fe 5d bb 3e 42 6b 71 3e e0 50 93 3d
       -0.3695071 0.36595148 0.23576072 0.0719316
000180 a6 a3 f5 be 6e 06 ef be b8 45 21 3d 6f 44 d3 3e
       -0.47976416 -0.46684593 0.03937313 0.41263148
000190 ff 1b d3 3d 36 ee 52 be 6e f9 23 bf a3 e9 4d bf
       0.10308074 -0.20598683 -0.64052474 -0.80434626
0001a0 2d a2 33 bf 6d c2 08 be fa 6b f7 3d a8 38 86 3e
       -0.70169336 -0.13355418 0.12081142 0.262151
0001b0 1b dd 55 3e 67 e2 12 bd 07 f0 75 3a 90 0f 9e 3e
       0.20885126 -0.035860445 0.0009381775 0.30871248
0001c0 fe a9 12 3f b7 84 e8 3e 2c f2 a4 3e c8 81 38 3e
       0.5729064 0.45413753 0.32216012 0.18018258
0001d0 c8 43 11 3e f8 c3 67 3e 64 23 6e 3e c1 27 03 3e
       0.14186013 0.2263335 0.23255688 0.12808134
0001e0 2b 81 c6 bd 05 3e 2f be 06 20 51 be bd 93 5c bd
       -0.096926056 -0.17113502 -0.20422372 -0.05385183
0001f0 e8 10 01 be 90 10 65 23 32 7e d1 23 0e d2 b8 a3
       -0.12604105 1.2417622e-17 2.2713271e-17 -2.0038282e-17
000200 e0 d6 e1 22 77 4b 08 a3 c3 9a 83 a3 3e 73 95 a3
       6.121388e-18 -7.388555e-18 -1.4268593e-17 -1.620342e-17
000210 14 9f 57 a3 17 2c 1f a3 64 21 9f 23 4f 0a 8b 23
       -1.16888595e-17 -8.628744e-18 1.7252956e-17 1.5074776e-17
000220 e5 86 cd a3 f2 6a c0 a3 11 7a b9 22 96 01 c8 a3
       -2.2283275e-17 -2.0861975e-17 5.0273593e-18 -2.1684715e-17
000230 d1 dc ce a3 04 a3 88 23 8c 8e dc 21 dd d2 32 23
       -2.2428084e-17 1.481419e-17 1.4945512e-18 9.694051e-18
000240 06 b3 6f 24 83 6e 79 23 b1 57 52 a4 c2 99 27 25
       5.1976503e-17 1.3521719e-17 -4.561077e-17 1.4537036e-16
000250 0a f9 67 28 3d a0 9c a6
       1.2877078e-14 -1.0868107e-15

conv1.bias f4 [6]
000000 eb 08 fe 3d 93 59 80 bd 3c 02 e6 3d e5 cf bf be
       0.12404045 -0.06267085 0.11230895 -0.37463298
000010 2d a3 c8 bc e6 d9 85 b0
       -0.02449187 -9.738954e-10

conv2.weight f4 [16, 6, 5, 5]
000000 e2 10 a2 3c 3c 76 37 3d 35 57 1a 3e 2c 2b 68 bd
       0.019783441 0.04479049 0.1507233 -0.056681797
000010 65 19 33 be 69 13 04 bb 01 35 0b 3e c7 4a 94 3e
       -0.17490156 -0.002015317 0.13594438 0.289633
000020 4d ad 13 be f2 95 28 be 78 6e 99 bc f2 45 29 3d
       -0.14421578 -0.1646345 -0.018729433 0.04132647
000030 41 27 29 3e 72 27 e0 bd 7d 46 e2 3c 10 48 52 be
       0.1651888 -0.109450236 0.027621502 -0.20535302
000040 d8 34 35 be 28 86 74 be d9 f7 f5 be 1f 50 a9 be
       -0.1769594 -0.23879302 -0.48040655 -0.3306894
000050 31 24 01 bf b3 2e d6 be 2f a0 12 bf 32 43 c5 be
       -0.5044585 -0.41832504 -0.5727567 -0.38527828
000060 38 94 86 be ee c7 5c 3e 87 e8 24 3e 4e 80 86 3e
       -0.26284957 0.21560642 0.16104327 0.26269764
000070 62 40 45 3e 28 24 c9 bd 8e 12 17 3e 9b 2e 81 3e
       0.19262841 -0.098213494 0.14753172 0.2523087
000080 06 00 ae 3e cf de 73 3e c5 df af bd e0 19 f4 bd
       0.33984393 0.23815463 -0.085876025 -0.11918998
000090 7d 33 7f bc e2 54 fa 3d e5 be 5e bd 59 cf 7b 3d
       -0.015576241 0.12223221 -0.05438127 0.06147704
0000a0 e6 fb 64 be 16 92 19 be 3b ca 12 be 37 7d 3e be
       -0.22361717 -0.14997134 -0.14334957 -0.18602453
0000b0 63 2a e4 3d 57 b1 9e be 49 19 3f be 46 55 e0 bd
       0.11140897 -0.30994675 -0.1866199 -0.109537646
0000c0 34 f2 a3 bd b0 a7 00 3e ea da d4 bc 80 e0 b6 be
       -0.08005181 0.12563968 -0.025983293 -0.35718155
0000d0 9f 87 ae be 41 1b d3 bd 0b ab b8 3b b8 84 2f be
       -0.34087846 -0.10307933 0.0056356243 -0.17140472
0000e0 82 17 f3 be e4 38 c2 be 15 27 94 3d 2c b3 13 3e
       -0.47478873 -0.3793403 0.07234017 0.14423817
0000f0 3e 3f b9 be ec 63 ab be f2 08 93 be 42 a7 8f bd
       -0.36181062 -0.33474672 -0.28717762 -0.07014324
000100 91 e9 04 3e e5 de 8d bd 92 70 ab 3d d0 e4 0c 3e
       0.12979724 -0.069272794 0.083710805 0.1375916
000110 88 66 79 3e 04 e2 15 3e 54 17 25 bd e3 e0 5f 3e
       0.24355519 0.14637 -0.04030545 0.21863131
000120 bf b4 c9 3e 38 d1 ec 3e b2 89 e6 bb f6 f9 30 3e
       0.3939571 0.4625337 -0.0070354575 0.17282853
000130 9f af 25 be 80 d7 8b be f7 48 b5 be 65 04 50 be
       -0.16180275 -0.2731285 -0.3540723 -0.20314176
000140 c7 9b 0c 3e 2a be 72 be 85 9f 5f be 53 52 1c be
       0.137313 -0.23705354 -0.21838196 -0.15265779
000150 8c 27 43 3e 57 e0 29 3e 37 ed 08 3d 46 d3 02 3e
       0.19058055 0.16589485 0.03342935 0.12775907
000160 eb 03 08 be e7 7e 1f 3e 37 e9 e1 3d e6 7c c2 3d
       -0.13282745 0.15575753 0.1103081 0.09496479
000170 04 b8 f9 3d 9f 6d 19 bd 9f 4c 65 be 05 cd e7 bd
       0.12193301 -0.03745806 -0.2239251 -0.11318401
000180 8f 61 00 be c3 9d 4d bd 4a 70 1b 3d e8 5d a9 be
       -0.12537216 -0.05019928 0.037948884 -0.33079457
000190 76 2c ec 3d 9f d8 bd 3d ad 3c 36 3e e4 f6 1b 3e
       0.11531918 0.09269833 0.17796583 0.152309
0001a0 5d b8 28 3e bb 65 d1 3d 45 72 06 3d ce a2 f8 3d
       0.16476579 0.10224482 0.03282382 0.121404275
0001b0 69 13 1d 3e 76 54 7e 3e f9 c3 9f 3d d8 fa 26 3d
       0.15339436 0.24836907 0.07801051 0.040766567
0001c0 9e 93 ee bd 17 dc 6e be 27 0b 2f be dc de 46 be
       -0.116492495 -0.23326145 -0.17094098 -0.19420952
0001d0 c1 ea 79 be a9 13 01 be e6 33 a0 3d bc 9b bc bc
       -0.24405958 -0.12605156 0.07822399 -0.023023479
0001e0 92 6b f2 bc 15 3d 7c 3e 7f a3 a9 3e 94 81 86 3e
       -0.02959231 0.24632676 0.3313255 0.26270735
0001f0 51 00 1f 3d 50 6f 38 a1 9e 92 15 a1 3e b4 02 1e
       0.03881866 -6.2488946e-19 -5.067721e-19 6.919416e-21
000200 61 0b 35 a1 4b de fb a0 81 29 a2 21 23 26 06 21
       -6.1340245e-19 -4.2668155e-19 1.0988533e-18 4.545144e-19
000210 d8 bd b9 a0 50 b4 80 21 ce e9 85 20 0f e9 a5 20
       -3.1465847e-19 8.721346e-19 2.2685795e-19 2.8106312e-19
000220 28 b6 8a 9f 46 07 b1 1e d4 cd 8c a0 4e dc a9 21
       -5.8746626e-20 1.8743612e-20 -2.3853128e-19 1.15102e-18
000230 2f 86 c6 1f 06 7a ae 9f 52 3b 81 a0 c2 52 7f 21
       8.407825e-20 -7.389374e-20 -2.1892705e-19 8.650689e-19
000240 81 5a 90 21 81 fd 81 20 d4 09 1c 22 c6 cc d8 a2
       9.781776e-19 2.2021205e-19 2.1147145e-18 -5.876373e-18
000250 a0 6e f0 22 c6 0f e3 a1 b6 df 26 3d ca 47 86 3e
       6.516926e-18 -1.5386294e-18 0.04074069 0.26226646
000260 cb 75 2b 3e db e9 cd bd 19 a9 05 3e 02 b1 41 3d
       0.16744153 -0.1005437 0.13052787 0.04728795
000270 f6 af dc 3d 96 fb 9c 3c 24 9f cb 3d d7 1b 53 3e
       0.107757494 0.019162934 0.09942463 0.20616089
000280 56 6d 8a bd 8d 5c 18 be 01 ba b9 bd 0f 7c 14 be
       -0.067591354 -0.14879055 -0.090686806 -0.1450045
000290 91 41 94 bd 39 cb 14 be a6 45 b0 be 06 d7 00 bf
       -0.07239068 -0.14530648 -0.34428138 -0.503281
0002a0 89 93 82 be 85 21 03 be eb a6 98 3e ff 3c 40 3e
       -0.25503185 -0.12805755 0.29814848 0.18773268
0002b0 d7 8d 54 3e af 22 33 3e 77 92 06 bd 25 bf a9 3d
       0.20757233 0.174937 -0.032854524 0.08288411
0002c0 e5 89 9f 3e 09 61 a7 3e 3f 73 31 bd 96 ab b9 bc
       0.31159893 0.3269122 -0.043322798 -0.022664826
0002d0 33 76 c2 bd 58 21 5c be 44 ff 8b be 29 cf 86 be
       -0.09495201 -0.21497095 -0.2734319 -0.26329926
0002e0 3f d5 a9 bb 9d 9e 11 be 1e c9 b8 bd c3 7d e9 3c
       -0.0051828916 -0.14220662 -0.09022735 0.02850235
0002f0 80 9d 82 bd 00 1d 4d 3d 8d 89 0b be 9a 60 d9 bc
       -0.06377697 0.050076485 -0.1362669 -0.026535321
000300 a0 48 6b be e5 29 a2 be 51 32 95 be 5a 59 c1 3c
       -0.22976923 -0.31672588 -0.2913995 0.023602176
000310 4a 94 42 3e 49 60 80 3d 8c 85 a0 be e7 c5 9b bd
       0.1900188 0.06268365 -0.31351888 -0.07606106
000320 92 39 66 bd 96 f8 64 be d1 92 fb bd e6 42 19 be
       -0.056207247 -0.22360453 -0.122838624 -0.14966926
000330 8a 92 94 be 38 4e 0c be 1d bc 6d be ca 41 97 be
       -0.2901805 -0.13701713 -0.23216291 -0.2954238
000340 11 3a 90 be b3 a5 4e be 0a 12 2d 3e d1 78 79 3e
       -0.281693 -0.20180397 0.16901413 0.24362494
000350 c9 7c 9e 3e f2 74 93 3e 5c 51 8b 3e bf c9 9c 3c
       0.3095458 0.2880016 0.2721051 0.019139169
000360 76 0f a9 3e b9 e7 cb 3e db 1d 7b 3e 76 d9 3f be
       0.33019608 0.39825228 0.24523108 -0.18735299
000370 61 6b 59 be f0 1e 99 be 1d 80 76 be e6 04 b6 be
       -0.21232368 -0.29906416 -0.24072309 -0.35550612
000380 eb a0 b1 be 91 1c 2c 3e 04 87 ff 3d be 37 68 bd
       -0.34693083 0.16807772 0.12476924 -0.056693785
000390 c4 00 8f 3d 14 32 a8 bd ff 34 34 3d ab b6 06 bb
       0.06982568 -0.08212677 0.043995854 -0.0020555656
0003a0 a3 f7 11 bd 8a a9 43 bd 03 04 e2 bd 17 99 74 bc
       -0.035636555 -0.047769107 -0.110359214 -0.014929078
0003b0 10 e5 07 3d f7 21 e0 3c c2 a0 8a 3c 7b bc 2e 3d
       0.033177435 0.027359946 0.016922358 0.042660218
0003c0 51 4b dc bd db cb fd bd 4a d7 6e 3b 53 77 b6 bd
       -0.10756553 -0.12392398 0.003644424 -0.08909478
0003d0 5a 22 3a be ae eb 0c 3a 84 d8 02 bf be d5 12 be
       -0.18177167 0.0005375695 -0.51111627 -0.14339349
0003e0 9b 94 45 be 0c 16 a3 bd 49 06 87 bc ed fc c5 bd
       -0.1929497 -0.079631895 -0.01648249 -0.096673824
0003f0 e6 87 ea bd 8c 10 36 be ac f5 2e be 0a 32 85 bd
       -0.11451702 -0.1777975 -0.17085904 -0.06503685

conv2.bias f4 [16]
000000 a4 d4 a7 3d 3a eb ca 3d a7 bf ed 3d 3b 5d 84 3d
       0.08194855 0.09908147 0.116088204 0.06463095
000010 2a 5b 1b bd 25 fb 80 3d 23 b6 34 bd b3 ad 05 3d
       -0.037928738 0.06297902 -0.04411901 0.032636356
000020 2c 96 08 be a0 c5 97 bd b4 d6 58 3d 30 e3 16 bb
       -0.13338536 -0.07410741 0.05293913 -0.0023023598
000030 ed 6e 05 be 22 0d 42 3e 13 b8 89 bd 71 cd ab 3d
       -0.13030596 0.18950322 -0.067245625 0.08388794

conv3.weight f4 [120, 16, 4, 4]
000000 62 62 48 bd 5f 9b 4d 3c 69 72 7a 3c 17 46 c6 bb
       -0.04892195 0.01254925 0.015286067 -0.006050836
000010 12 ae ad bd 1c ed 1e bb cc 25 3b 3d db 56 c0 3d
       -0.08480467 -0.0024250215 0.045690343 0.09391566
000020 3b c9 bf 3c bd ac 5a bd a9 5c 93 3d 78 60 f3 3d
       0.023411384 -0.053387392 0.07195408 0.11883634
000030 80 82 18 3e e6 dc da 3d 12 13 37 bd a4 73 d4 bd
       0.14893532 0.10686664 -0.04469592 -0.10373619
000040 b6 77 c0 3d da 06 89 bd 01 58 85 bd e1 f2 d4 bc
       0.09397833 -0.0669076 -0.06510926 -0.02599472
000050 8e 3a 56 3d b4 d7 b7 3d ad b4 81 3d 78 a5 3a 3d
       0.052301936 0.08976689 0.06333289 0.04556796
000060 e8 49 a4 3d bb 0b 03 3e 35 0b 6e 3e bb 00 29 3d
       0.08021909 0.12797444 0.23246463 0.041260462
000070 7e f4 17 3e 11 1c 39 3d 18 ea f1 bc b3 21 a5 bc
       0.1483936 0.04519278 -0.02953057 -0.02015767
000080 28 0f b7 3c 39 69 bf 3c f7 01 15 3b a9 bc 3b 3d
       0.022346094 0.023365604 0.0022736767 0.045834217
000090 ce 1d 8c bd 94 41 c3 bd 6f b1 b8 3d c9 25 4c 3c
       -0.06841622 -0.095339924 0.09018218 0.012460181
0000a0 cc f5 0b 3d d8 e4 b1 3d c4 c4 9b 3d ca c7 02 bd
       0.034169957 0.086862266 0.076058894 -0.031928815
0000b0 06 44 d1 3d 7d 79 59 bb 03 18 bd bd 1b d6 5f 3d
       0.102180526 -0.0033183985 -0.092330955 0.054647546
0000c0 5b f3 11 3d 1e 5d 35 bd 9f 55 e5 bd 02 62 aa bd
       0.035632472 -0.044278257 -0.111979716 -0.08319475
0000d0 4c cd 71 3e eb b2 18 be 67 b1 9b bd 0d 2e 56 be
       0.23613471 -0.14912002 -0.07602196 -0.20916004
0000e0 86 dc 6f bd 2a 0e 51 3d f7 fd 26 be 1e 2e d6 3d
       -0.058559917 0.0510389 -0.16307817 0.10458015
0000f0 28 f4 a3 bd ce d1 71 bd 9a 1a 4d 3d bf 87 d1 3b
       -0.080055535 -0.059037976 0.050074197 0.006394356
000100 d6 bf 4c bd 6f 2f 00 be 39 4c 08 3c e6 f4 d2 3a
       -0.049987637 -0.12518094 0.008318954 0.0016094714
000110 ff 3d e0 bd 7e f4 2c 3c bb 53 fe bc be 7c 56 bd
       -0.10949325 0.010556338 -0.031045785 -0.052365057
000120 90 d1 22 3b bf e1 38 bd 6c e4 e5 bd a5 04 23 be
       0.0024844147 -0.045137163 -0.11225209 -0.1591974
000130 bb 43 56 bd 4e 98 b3 bd f4 04 f1 bd e8 54 ae bd
       -0.052310687 -0.08769284 -0.11768523 -0.08512288
000140 7d 58 06 be 07 be 1e bd a4 6c 45 bc 7e 79 24 3d
       -0.13119693 -0.038755443 -0.012049828 0.040154926
000150 e5 6d b6 39 d8 69 bd bc 43 59 6b 3d 07 e3 03 bd
       0.00034795623 -0.02312176 0.057458173 -0.032198932
000160 07 59 f4 3c 91 8c 24 3a d6 6d 95 bd 22 2c f5 bd
       0.029827608 0.00062770495 -0.0729634 -0.11971308
000170 74 40 78 3d d0 a2 6a 3e e8 c8 81 3e 63 cf 20 3e
       0.060608342 0.2291367 0.25348592 0.15704112
000180 0e 08 d2 bc 6e 05 09 be dd 8a cf bd 8d e7 89 bd
       -0.025638606 -0.13380978 -0.10133908 -0.06733618
000190 31 41 17 3e da b0 c9 3d 5e 8e 69 bd 7c 53 fe 3d
       0.14770962 0.09848185 -0.057020538 0.12418267
0001a0 78 fc ee bd 6f 50 33 bd e6 28 8a bd f8 f2 2b be
       -0.11669248 -0.04377788 -0.06746082 -0.16791904
0001b0 15 96 48 be 3a 81 40 be 60 ee 04 be f5 75 16 36
       -0.19588502 -0.18799296 -0.12981558 2.2420402e-06
0001c0 3f ed d9 3d 7f 1a 3b 3e 97 75 df 3d c4 e7 3f bc
       0.10640954 0.18271826 0.109111 -0.011712972
0001d0 97 f8 c8 bc 90 97 72 bc 6d 13 c6 bd 3f 59 aa bb
       -0.0245326 -0.014806643 -0.09671674 -0.0051986272
0001e0 6a f7 50 3d e5 89 29 3e a1 57 a0 3d 5b 6d 2d 3d
       0.051017202 0.16556509 0.07829214 0.042340618
0001f0 ea ef db 3d 05 0f 21 3c de 2b 7d bd 8b fb 8e 3c
       0.10739119 0.009830241 -0.061809413 0.01745393
000200 7e 47 2e be 43 a9 02 3d 24 14 ec bd f3 53 05 bd
       -0.1701946 0.0318997 -0.11527279 -0.032550763
000210 61 df 93 bd a5 55 43 3d 65 27 c8 bd 29 a9 8a be
       -0.072203405 0.0476891 -0.09773139 -0.27082184
000220 d4 da 81 bc 9a 51 51 bc 07 b6 46 bb 03 12 8d 3b
       -0.015851416 -0.012775803 -0.00303209 0.0043051257
000230 fb 4b 9c 3b 40 e6 5c bc 5e b4 23 3e bb ef 2f bc
       0.0047697998 -0.01348263 0.15986773 -0.010738309
000240 f9 8b e4 bc 82 c2 97 bd 6c 03 d8 bd b3 01 c4 bd
       -0.027898775 -0.07410146 -0.10547528 -0.095706366
000250 78 57 0f bd c5 51 06 be 39 d9 f3 bc fa 8b 12 3b
       -0.034995526 -0.1311713 -0.029766666 0.0022361265
000260 58 fe fe bd fa 0c 6e bd f4 cc 00 3d 21 d1 d9 bc
       -0.12450856 -0.058117844 0.03144546 -0.026588978
000270 da c2 22 bc c1 c8 aa bc 97 8c 37 bd ab 8e b0 bd
       -0.009934152 -0.02084768 -0.04481181 -0.08620962
000280 5a 51 7d bd c1 2a f0 bd 94 87 e3 bc 27 cf fa bd
       -0.06184516 -0.11726905 -0.02777461 -0.122465424
000290 f5 65 bc 3d d3 3a a4 3c e2 44 15 bd ec 1b 0d be
       0.09199134 0.02004758 -0.036442645 -0.13780183
0002a0 28 16 44 3e 66 bf cd bc 16 eb e8 3a b2 57 00 be
       0.19149077 -0.02511568 0.0017770256 -0.12533453
0002b0 7c 47 be bd eb a6 f0 bd 24 7d 86 bd 5f fd cf bc
       -0.09290978 -0.11750587 -0.065668374 -0.025389371
0002c0 0e b0 d5 3c 27 51 31 b8 8a f0 cf 3d 8f ac c0 bc
       0.026084926 -4.2275668e-05 0.10153301 -0.023519782
0002d0 82 3d e8 bb 52 54 0b be fd be a8 bc d2 96 17 3b
       -0.0070874104 -0.13606384 -0.020598883 0.0023130667
0002e0 2e 97 59 bd 44 73 31 bd a1 ba 2f bd 1a 23 35 bd
       -0.05312269 -0.043322816 -0.042902593 -0.04422293
0002f0 e5 b1 b4 bd 9c 81 bc 3d 1d 56 09 bd 57 2c d1 bc
       -0.08822993 0.092044085 -0.03352939 -0.025533838
000300 78 c2 7b bd 28 12 c9 bd 86 1b b3 bd bf ac e8 bd
       -0.061464757 -0.09817916 -0.08745484 -0.11361074
000310 92 5f c9 bc 40 44 9c bd 4d ce b9 3d dc 15 22 3e
       -0.024581704 -0.07630205 0.09072552 0.15828651
000320 28 e7 5a bd 10 1d 03 bd 53 29 76 bc 1d e6 c7 bd
       -0.053443104 -0.032010138 -0.015024501 -0.097606875
000330 de eb 32 bd d5 d9 6e 3c 41 cc a7 bd 68 8e 14 bd
       -0.04368197 0.014578302 -0.08193255 -0.03626862
000340 e3 9a 1a be 3a 72 e6 bd 85 6a bc 3d 03 aa db bc
       -0.15098147 -0.11252256 0.092000045 -0.026814466
000350 e0 30 d3 bc 20 58 bd bd f6 29 d6 3c 6b 9c 8f 3b
       -0.025780141 -0.09245324 0.026143055 0.00438266
000360 8e f3 c4 3d 6b f3 32 3e 0a 89 5f 3e 35 c9 6c 3e
       0.09616767 0.17475669 0.2182962 0.2312363
000370 ba f4 29 bd 92 11 9a ba 88 f5 bc 3c 74 46 a8 3d
       -0.041493155 -0.0011754504 0.023066297 0.08216563
000380 68 a0 96 bd 60 8e 67 bd 1b 25 70 3d 7c 57 ac 3d
       -0.07354814 -0.056532264 0.058629137 0.08415124
000390 10 88 74 3d 17 a9 a5 bd d1 3b 05 be 54 26 cd 3d
       0.05970007 -0.08088892 -0.130111 0.10017076
0003a0 ca e3 d1 bc 9e 78 fa bc dc 61 db bd 83 98 a3 3c
       -0.025621314 -0.030575093 -0.107120246 0.019970184
0003b0 00 f7 1c bd 14 99 bf bc 68 60 6a 3d 46 d1 91 3c
       -0.038321495 -0.023388423 0.057220846 0.017799985
0003c0 0d 99 50 bd d8 18 b5 3d 51 03 0b 3d d1 a2 a9 3d
       -0.05092721 0.08842629 0.03393871 0.08283008
0003d0 e7 6c 00 be 56 28 2a bd fc 3e b9 bd c3 28 d7 bc
       -0.12541543 -0.041542374 -0.090452164 -0.026264554
0003e0 ba b1 51 bc a4 2d 11 be 2f e6 41 bd fe 39 ac 3d
       -0.012798721 -0.14177567 -0.04733866 0.08409499
0003f0 47 85 15 3e 4d 39 ea 3c f6 4c 30 bd 96 ab 00 3d
       0.14601623 0.028591776 -0.043042146 0.031413637

conv3.bias f4 [120]
000000 80 75 81 be b4 a9 b6 bd 7b 06 a9 b9 cb 5b 10 be
       -0.25284958 -0.08919087 -0.0003223902 -0.14097516
000010 03 0b ea 3d ec 62 8e 9d 06 a0 1e bd 68 1f c1 3e
       0.114278816 -3.768937e-21 -0.03872683 0.37719274
000020 f7 dd 03 bd 87 f3 15 be 11 9f 9a bd 2a c2 e0 3d
       -0.032194104 -0.1464368 -0.07549871 0.10974534
000030 09 9f 38 bd a2 9a 1b 3e f3 7c d1 bd 71 0d c0 bd
       -0.045073543 0.15195706 -0.1022891 -0.09377564
000040 79 b2 58 be ff 5f 02 bd 88 9a fe bc e9 6a 04 3f
       -0.21161832 -0.03182983 -0.031079546 0.5172563
000050 49 d9 6d 3d 96 c1 22 ae cc 66 01 bd 42 0a 2f 3e
       0.058068547 -3.7006474e-11 -0.031592175 0.17093757
000060 bb af 30 bd 62 c8 77 3d d6 8b e5 bb 3e 9b e7 3d
       -0.04313634 0.060493834 -0.007005195 0.11308907
000070 78 3c 29 be c6 14 bd bd d4 df 42 bd dd 78 39 be
       -0.16526973 -0.09232478 -0.04757674 -0.18112512
000080 fe a6 8a 3d 5f 3c dc bd 73 33 42 bc a4 c7 82 bd
       0.067701325 -0.10753702 -0.011853087 -0.06385735
000090 ec a6 00 80 31 35 68 3e c4 69 97 3c 53 a4 25 a2
       -5.988e-41 0.22676541 0.01848305 -2.2448662e-18
0000a0 4f 12 c5 bc 8b 5d 00 bd 55 34 99 3d 3a b6 42 3d
       -0.024056582 -0.03133921 0.07480685 0.047537066
0000b0 2c f1 8b 3d 8e bd b5 bd 9c 90 d4 bd b0 1d 77 af
       0.06833109 -0.08874045 -0.103791445 -2.2475066e-10
0000c0 0c 82 4c 3e 25 79 46 3e e6 f2 ee 3d 09 af 54 bd
       0.19971484 0.1938215 0.11667423 -0.05192474
0000d0 f2 49 f1 bc 10 d0 04 be 8e e4 ed bc 92 4a 4e 3d
       -0.029454205 -0.12969995 -0.029039647 0.050364085
0000e0 74 64 b1 3d 3f 36 07 bd 10 75 ab 3e 94 40 53 39
       0.08661738 -0.033010717 0.3348775 0.00020146585
0000f0 6b eb e8 3c 79 72 4c 3d 34 73 39 bd 16 01 9e b7
       0.028432569 0.049913857 -0.045275882 -1.8835573e-05
000100 5b 0b 16 be 38 8e 15 bc e0 30 25 bc 16 f4 eb 3b
       -0.1465277 -0.009128146 -0.0100824535 0.007200728
000110 77 f0 79 bc 4e 4f 9f 3c 50 a7 58 be 05 4d f7 bd
       -0.015255085 0.019446995 -0.21157575 -0.12075237
000120 45 6e 65 bb 5a 52 a4 bd cf d5 a1 3e bf c2 0c bd
       -0.0035008353 -0.0802352 0.31608436 -0.03436541
000130 a5 f5 55 be a3 ad 78 be 03 1b 67 3d c3 65 a2 bd
       -0.20894487 -0.24284987 0.056422245 -0.07929566
000140 ed 24 2b 3d a0 5d 29 bd f2 08 24 3c a1 35 e4 bd
       0.041783262 -0.041349053 0.010011898 -0.111430414
000150 39 da f4 a4 b0 d5 23 3d 8d b1 fc 3d d9 e9 3a be
       -1.06187816e-16 0.03999871 0.123385526 -0.18253268
000160 27 15 0d 3d 30 8f a8 be 25 d7 14 be f8 f2 5e bb
       0.034444 -0.32921743 -0.14535196 -0.0034019332
000170 50 53 ae 3d 5a 1d 91 bd a8 d1 6b bb d7 68 9e b9
       0.08511984 -0.070856765 -0.003598312 -0.0003021422
000180 d6 0d 0b be 7e b8 9e b5 67 17 23 bd 69 a4 bc 3d
       -0.13579497 -1.1825612e-06 -0.03981724 0.09211046
000190 e6 d9 67 3e cb 5e 3d be 91 3b 61 bd 96 91 94 bd
       0.22641715 -0.18493192 -0.054988448 -0.07254331
0001a0 ce 5b 3e be ae 4f 65 3c 48 7d 92 be a4 01 df bc
       -0.18589708 0.013996048 -0.28611207 -0.027222462
0001b0 cb 00 f6 bc fe fc 07 3d 12 ec e9 3d 4a 0a 5a 3d
       -0.030029675 0.033200257 0.1142198 0.05323247
0001c0 a8 73 eb 3d 28 cf 92 3e 27 3a 30 be b7 eb f8 bd
       0.11496669 0.28673673 -0.17209683 -0.12154334
0001d0 c9 7f 12 bd 76 ca 00 bb f7 ea e2 bc 5c e5 8e bd
       -0.035766397 -0.0019651926 -0.02769993 -0.069773406

fully_connected1.weight f4 [84, 120]
000000 42 37 81 3d 15 6f 30 3d 1a 3a e2 ba 15 2d 4e 3e
       0.06309368 0.043074686 -0.0017259747 0.20134385
000010 7d 45 5e bd cd 34 c9 9a 66 0c 7f 3d a5 b1 88 bd
       -0.054265488 -8.3216956e-23 0.062267683 -0.06674508
000020 d2 e4 af bb 60 e9 39 be 98 48 41 3c 45 e0 40 3d
       -0.0053678537 -0.18155432 0.011797093 0.04708888
000030 12 b8 e1 3d 78 55 45 bd 22 6e 4d be 7b 56 60 3d
       0.11021437 -0.048177212 -0.20061544 0.054769974
000040 24 db ad bd ab 56 9a 3c 3a 6e 16 3d c6 55 3e 3c
       -0.084890634 0.018840155 0.036726214 0.01161713
000050 d2 6a c2 bb 4b ea 51 2b 3c 9b 99 3e 9e 3b 65 bd
       -0.005933144 7.457686e-13 0.30001247 -0.05596506
000060 44 ef 85 3d 02 76 09 bd 04 d8 f8 ba 7b 9f e5 bd
       0.06539777 -0.033559807 -0.0018985276 -0.11212059
000070 df e5 84 bd ec 21 a2 bd aa aa 17 bb 9b 4f 17 bd
       -0.06489157 -0.07916626 -0.0023142495 -0.036941152
000080 75 ca d9 3d 50 8a a5 3d f0 c6 c2 ba 19 8c a2 bd
       0.10634319 0.08083022 -0.0014860313 -0.07936878
000090 17 34 00 00 8f 70 17 3e 22 1b 81 3e c0 5d a8 13
       1.8686e-41 0.14789031 0.25216013 4.2501607e-27
0000a0 33 80 fb b8 d7 80 ed b9 06 a3 80 be df d5 da bd
       -0.000119924916 -0.00045300156 -0.25124377 -0.10685324
0000b0 f1 73 cd bd 86 b1 89 bb 9f 1f 0e 3e b4 c2 00 00
       -0.1003188 -0.0042020706 0.1387925 6.9846e-41
0000c0 ec db 63 3e 22 0b 35 3e fb b6 3c be c0 05 27 be
       0.22251862 0.17680028 -0.18429177 -0.16310787
0000d0 63 0e 85 3d dd 45 6c 3d 3e 27 0b be 7e 18 62 bc
       0.06496885 0.057683814 -0.13589188 -0.013799785
0000e0 c1 70 81 3d 5e 3c f1 3d 22 21 19 be 70 8b aa b7
       0.06320334 0.11779092 -0.14954045 -2.033051e-05
0000f0 59 9a 24 bc c9 64 f0 bd d3 18 42 bb f1 4b 8b b2
       -0.010046565 -0.11737973 -0.0029616847 -1.6216264e-08
000100 d3 c0 27 3e 2d 97 35 3e 68 24 5f ba 96 27 31 3e
       0.1638215 0.1773345 -0.00085122 0.17300257
000110 77 28 e9 bd 97 6f e3 bb 74 37 82 be 68 91 12 3e
       -0.11384671 -0.006940793 -0.25432932 0.1431328
000120 40 84 3a 3c 6c 19 41 be 75 d4 b4 be ea f1 ec bc
       0.01138407 -0.18857354 -0.35318342 -0.028923947
000130 7c b2 d2 3d 3c 1f 11 3e 73 aa c6 bd 51 47 e7 bc
       0.102879494 0.14172071 -0.09700479 -0.028232248
000140 39 8b 16 3e a8 b2 c1 3d 7e ec d4 3d 8f c0 17 be
       0.14701547 0.09457904 0.1039667 -0.14819549
000150 f0 bd 04 b3 40 72 d1 3d ec 66 e9 3d 31 e0 9b be
       -3.0906392e-08 0.102268696 0.11396584 -0.30444482
000160 1d 48 ac 3d 7f 1c 26 b8 a3 5f 24 3d 27 60 72 bb
       0.08412192 -3.9604023e-05 0.04013027 -0.003698358
000170 fd 32 e1 3d 35 0d b0 bc 09 0b 9d 3a 67 50 5f 3c
       0.10996053 -0.021490673 0.0011981438 0.013630009
000180 e1 d8 a7 bd 79 52 a7 33 2e c8 18 bd f7 70 ab 3e
       -0.08195663 7.791545e-08 -0.03730028 0.33484623
000190 b6 67 23 be d2 e5 50 3d 8f 57 0b 3c a1 60 b5 39
       -0.15957531 0.051000424 0.008504762 0.00034595004
0001a0 74 5d 95 3b dc c3 cc bd b9 e4 7a bd 44 af 73 3d
       0.0045582596 -0.09998295 -0.061253283 0.05949332
0001b0 be a4 e8 3d d3 85 a0 3d 8a 55 d0 3b cb 30 ad 3e
       0.11359547 0.07838025 0.0063578533 0.3382629
0001c0 b6 ff cb bd a2 a1 a4 bd 39 51 59 3e 2b c5 53 be
       -0.09960882 -0.080386415 0.2122239 -0.20680682
0001d0 5b 87 a8 3c c4 e7 e0 36 ba 02 66 3e 20 e4 7f 3d
       0.020572355 6.7027013e-06 0.22461978 0.062473416
0001e0 9e 78 5e be 43 30 3b 3e 2d a1 4d b9 dc 45 db 3d
       -0.217257 0.18280129 -0.00019610366 0.10706684
0001f0 80 73 9c bb 9e b7 a4 28 2b 9b 98 bd 23 8b c3 3d
       -0.004774511 1.8287289e-14 -0.07451471 0.095480226
000200 92 24 13 3c 30 dd 18 bd 77 90 ba 3d 0a e6 70 3d
       0.008980887 -0.037320316 0.09109586 0.058813132
000210 f0 93 5e 3c 5f 3c 8e 3e 69 17 3b 3e 3a 0e c2 bd
       0.013585076 0.27780434 0.18270649 -0.0947537
000220 5e c0 75 3c 96 91 8f 3c a8 6c d1 bc 71 10 dc bd
       0.014999477 0.017525475 -0.025564507 -0.107453234
000230 ad 0c 53 3e 3a 7d 24 ac 4e c9 ca 3d 8a 72 c0 3d
       0.20610304 -2.3375316e-12 0.09901677 0.093968466
000240 19 df a4 bc a4 1f 36 3d 2f a5 f1 ba 3e b6 d5 3e
       -0.020125913 0.04446377 -0.0018436069 0.41740602
000250 68 7a bd 3c c4 f3 e4 be 97 42 e8 ba a2 c2 ca 3c
       0.023129657 -0.44717228 -0.0017720041 0.024751011
000260 9a 95 8b 3e 91 09 38 be 22 a5 1f bb 48 f5 22 3e
       0.27262574 -0.179724 -0.0024359901 0.1591388
000270 80 ef 00 00 7f 29 86 3e 3f 43 8b bc b7 ef 05 27
       8.5916e-41 0.26203534 -0.016999839 1.8587407e-15
000280 17 05 c2 3a 81 aa 7d bc 54 82 d2 3e 91 0c 10 3c
       0.0014802542 -0.015482546 0.41115057 0.008792059
000290 61 45 11 3e 22 c4 9b bd b9 23 50 bd 16 90 00 00
       0.14186622 -0.07605769 -0.050815318 5.1688e-41
0002a0 02 85 58 3d bf 05 a5 be ee bc 87 3a 98 c9 5b 3c
       0.05286122 -0.32230946 0.0010355988 0.013414763
0002b0 3e 53 28 3b 94 fe 74 bd 2a 33 48 bc 1e 82 4f 3e
       0.0025684382 -0.059813097 -0.01221923 0.2026448
0002c0 0a 54 64 3e 21 2c 36 3e a8 c7 18 3d a1 7d 8c 38
       0.22297683 0.17790271 0.037299782 6.6991204e-05
0002d0 9d 87 61 3d 05 d1 6b bd d6 94 c6 3c 41 12 fc b3
       0.05506097 -0.057572383 0.024240892 -1.1737985e-07
0002e0 f4 82 f7 bd 49 0d 8a 3d e6 e5 1a bb db 78 3d bd
       -0.12085524 0.06740815 -0.0023635565 -0.046257835
0002f0 a4 56 39 be 3e d5 3a 3d 51 1d b0 be 47 52 25 3e
       -0.18099457 0.04561352 -0.34397367 0.16144668
000300 fb 0e af 3c ff 6f 34 3e b6 20 32 3e 1f 2b 80 bc
       0.021369448 0.17620848 0.1739529 -0.015645562
000310 0b 46 ee bd fe 70 4a be bc 20 10 be f2 f1 00 3e
       -0.116344534 -0.19769666 -0.14074987 0.12592295
000320 13 f2 76 3e c7 72 6d be 2c ed 37 3e de 65 2c 3d
       0.24115781 -0.23188315 0.17961568 0.042089336
000330 4b 4f 97 2e 76 33 a7 3e af c2 05 3e 72 f0 de bc
       6.88077e-11 0.3265645 0.13062547 -0.027214263
000340 7b 41 50 3e 9b 63 35 be 2e 66 52 bd 5b 06 39 ba
       0.20337479 -0.17713778 -0.051366977 -0.0007058137
000350 89 4b 22 3e 06 7d a1 bc 54 3a 6f 3a 93 49 65 3c
       0.15849127 -0.019712936 0.0009125818 0.013994592
000360 99 70 dd bd d7 5b 0e 35 47 29 60 bb 9a 68 13 be
       -0.10812492 5.3032767e-07 -0.003420429 -0.14395371
000370 0e 5e 98 3c 19 be 07 3a 82 6a 1d 3d 2a 34 02 be
       0.018599536 0.0005178168 0.038431652 -0.12715212
000380 69 1d 4b be 2e 67 82 bc 4e 4c de bd 27 6e c9 bd
       -0.19835438 -0.01591834 -0.10854398 -0.09835463
000390 8c 9a 81 3c 1e 38 79 3e 08 49 97 3e 4a ce 28 be
       0.015820764 0.24337813 0.29547906 -0.16484943
0003a0 78 73 ab 3e e3 34 4f ba 92 a3 f1 3d 96 41 64 be
       0.33486533 -0.0007904304 0.11798777 -0.22290644
0003b0 c3 ca 3e 3c 86 07 b6 b8 31 c8 ec bd 44 3d 36 bc
       0.011645022 -8.6798376e-05 -0.11561621 -0.011123005
0003c0 33 15 00 80 1e ae 00 80 a5 d5 00 80 26 b6 e2 9b
       -7.605e-42 -6.2461e-41 -7.6641e-41 -3.7506274e-22
0003d0 a1 0c 00 00 ce e4 00 80 33 5e 00 00 ef 67 fa 8f
       4.53e-42 -8.208e-41 3.3792e-41 -2.4691937e-29
0003e0 74 49 01 80 51 11 00 00 88 3f 17 86 5d 89 00 80
       -1.18186e-40 6.212e-42 -2.844662e-35 -4.9277e-41
0003f0 49 6b 00 80 ec b8 00 00 c2 ab 26 00 11 6b 00 00
       -3.8487e-41 6.6337e-41 3.551364e-39 3.8408e-41

fully_connected1.bias f4 [84]
000000 60 dc 51 3e 97 74 d3 3e 7d 1f 33 99 3c a9 c2 bb
       0.20494223 0.41299888 -9.260442e-24 -0.0059405845
000010 3e fe 27 b5 0f 65 a5 3e 45 3b d2 3c 6d 41 15 3e
       -6.258232e-07 0.32303664 0.025663028 0.14575739
000020 cd b3 84 3e f4 3b 81 3c df 58 b0 bc f2 81 7a 3e
       0.25918427 0.015775658 -0.021526752 0.24463633
000030 38 1f dd 3b 1d ea 5f bd 18 25 96 bb cd f1 ad 3d
       0.0067481063 -0.054666627 -0.0045820586 0.084933855
000040 5d f5 cd b5 5e 4a 12 bc d0 2f d4 bd d2 c9 1e 3e
       -1.53451e-06 -0.008928863 -0.10360682 0.15506676
000050 82 66 e0 3e ef 77 af 3e 62 22 1c 3e 11 3d 8f 3d
       0.43828207 0.3427119 0.15247491 0.06994069
000060 cf 69 ff 3c c2 91 e0 bc 2f 50 8a 3e 08 45 98 3e
       0.031178383 -0.027413253 0.270143 0.29740167
000070 84 6a 85 3d 30 51 76 b1 24 53 c3 bb 5e d6 af bb
       0.06514457 -3.5843861e-09 -0.005960839 -0.0053661307
000080 bd ed 64 3b 85 b4 52 3d 69 3e c3 bc c6 11 9e bc
       0.0034931742 0.051441688 -0.02383347 -0.019295584
000090 09 4a 45 bd 5f d3 2a bc 25 74 ee 3d b9 b8 88 3d
       -0.04816631 -0.010426371 0.116432466 0.06675858
0000a0 39 d1 f0 3d 6b 6f b6 3e 31 02 af 3d 90 dd 1b bd
       0.11758656 0.3563188 0.0854534 -0.038053095
0000b0 89 e6 b6 bc e7 07 56 3d fb 4a 2f 3d c7 1b 77 3e
       -0.022326725 0.05225363 0.042796116 0.2413169
0000c0 66 cd 88 b6 e1 13 c1 3d 94 40 a5 ae 73 dd 93 b9
       -4.0770274e-06 0.0942762 -7.514803e-11 -0.00028203017
0000d0 29 80 d1 3c 2a e5 80 a1 21 cb f5 3c 51 ff 74 3e
       0.025573807 -8.734277e-19 0.030004086 0.2392552
0000e0 58 ce 30 3e 8c 95 78 96 4a 64 05 3e 5b 40 c7 3e
       0.17266214 -2.0080469e-25 0.13026538 0.38916287
0000f0 82 28 08 bd 4d 18 bd bc 20 69 84 a8 d8 3c f0 bc
       -0.033241756 -0.023082877 -1.4700535e-14 -0.029325888
000100 54 fd 73 3d 8a 5c e9 3d 95 92 35 bd 0c 52 de b8
       0.059567764 0.113946036 -0.044329245 -0.00010601067
000110 70 d0 76 3e 6b 93 3d 3d 6f eb 69 bb 36 9e 3c bb
       0.2410295 0.046283167 -0.0035693308 -0.0028780825
000120 81 3a 95 3d 41 ca a8 b6 bf ed 29 3c 8b cc 00 bc
       0.07286549 -5.0303356e-06 0.0103716245 -0.007861267
000130 07 00 1e bb 3a 9d 3d b0 ef 1e 6f bc 28 4c 34 bd
       -0.0024108903 -6.898123e-10 -0.0145947775 -0.04401794
000140 38 a3 d5 ae 8f 7b 26 bd dc 38 9d 3c 94 58 56 3e
       -9.715112e-11 -0.04064518 0.019192152 0.20932227

fully_connected2.weight f4 [10, 84]
000000 55 2b 3e 3e a2 ae 0b bf c8 f8 13 28 fa 32 93 3b
       0.18571217 -0.54563344 8.214085e-15 0.004492161
000010 84 b1 c1 36 95 62 cf be 27 de 7b 3e bc 48 d6 be
       5.7725138e-06 -0.405049 0.24596463 -0.41852367
000020 65 19 44 be 3f 24 84 3d c2 5a c4 3d ae a1 12 be
       -0.19150312 0.06452226 0.09587623 -0.14319488
000030 ed 2e f0 3e 1c 53 5c 3e 07 17 d7 bb 53 62 94 be
       0.46910802 0.21516079 -0.0065640244 -0.28981265
000040 5e d8 91 b8 94 a0 0d bd 10 4d 53 be ba a2 eb be
       -6.95444e-05 -0.034576967 -0.20634866 -0.46022588
000050 6b 44 99 bd 79 cb 1a 3e 9f f4 a6 bc 5f 19 b5 3c
       -0.07483753 0.15116681 -0.020380316 0.022106824
000060 b0 48 6d 3e 0c 49 3a be ee 5d 73 be e4 76 98 be
       0.2317226 -0.18191928 -0.237663 -0.29778206
000070 59 ba 87 bd c4 f8 00 80 a4 6a 1c ba da 33 1d 3a
       -0.0662734 -8.924e-41 -0.00059668184 0.0005996801
000080 e4 db 81 bc dc e6 be be e4 88 7f bd 99 40 ff bb
       -0.015851922 -0.37285507 -0.06238641 -0.007789683
000090 cb 66 96 bd ba dd c0 3b 06 06 9f be 8c 28 50 be
       -0.07343825 0.005885807 -0.31059283 -0.20327967
0000a0 d1 e1 ca 3e a4 b9 c6 3e ca ee bf be 99 b6 d6 bc
       0.3962541 0.38813508 -0.3748687 -0.026210116
0000b0 97 79 70 be cf 2a 41 3e 2e b3 81 3c 25 8c 5c bd
       -0.23483883 0.18863986 0.01583251 -0.05384459
0000c0 b2 30 9e 36 18 c8 22 be 10 51 9a b4 f6 9c 26 ba
       4.714436e-06 -0.15896642 -2.8743716e-07 -0.00063557865
0000d0 36 98 d2 bd 96 82 00 00 0c 7c 73 be ee 09 8a be
       -0.10282938 4.6845e-41 -0.23777789 -0.269607
0000e0 4b cc 0b bd d0 a9 02 2f dd b1 3d 3e a4 bd 32 bc
       -0.034130376 1.188376e-10 0.1852488 -0.010909472
0000f0 2b fa 01 3e bb 91 e1 bb db ab 15 38 5e 56 22 bc
       0.12693088 -0.0068838275 3.568442e-05 -0.009908287
000100 89 83 a6 bd 43 39 ab be 36 ce 37 bd 5b e5 90 be
       -0.08130557 -0.33442125 -0.044874392 -0.28299984
000110 9b ec d4 bc 77 85 29 be 86 c0 ae 3b 8f a9 a7 ba
       -0.025991729 -0.16554819 0.005333009 -0.0012791621
000120 28 38 2e be d1 fd 33 ba c7 80 2a be 8f 65 35 bb
       -0.1701361 -0.00068661297 -0.16650687 -0.0027678942
000130 05 68 61 be a0 c4 00 00 37 04 57 3c 37 03 83 3d
       -0.22012337 7.0536e-41 0.0131235635 0.063970976
000140 de 83 78 33 8b 67 b7 bc 51 18 e9 3b c4 5c 1f be
       5.7861932e-08 -0.02238824 0.0071134944 -0.15562731
000150 c5 63 c5 be cf 19 12 bf 2a 92 e8 9c 29 6d 6b bb
       -0.3855268 -0.5707063 -1.5390255e-21 -0.0035923219
000160 b4 64 62 32 13 3d e8 be 7c 8a c7 bd 5d 1c cd bc
       1.3177829e-08 -0.45359096 -0.09743211 -0.025037939
000170 a2 a8 06 3e db c5 59 3d 51 da 7e bd bd 72 8a 3e
       0.13150266 0.053167205 -0.06221992 0.27040663
000180 62 94 09 bd ff da b1 bd 26 6b 85 3a 7e f0 27 3f
       -0.033588775 -0.08684348 0.0010179027 0.65601337
000190 7c 41 47 39 24 df a5 3c 96 56 e0 3d e7 dd 97 3d
       0.00019002514 0.020248003 0.10954015 0.074153714
0001a0 de ba 57 3c 95 12 be bd 16 f1 aa be a0 43 44 bd
       0.013167111 -0.09280888 -0.3338706 -0.047916055
0001b0 db 9f de be 7b 82 1d 3e 92 7d 75 bd 2e 4e c9 be
       -0.43481335 0.15381806 -0.059934206 -0.3931746
0001c0 4c fd a7 be 6f 61 00 80 9b 09 f5 b6 70 47 83 3c
       -0.32810438 -3.4953e-41 -7.302687e-06 0.016025275
0001d0 c1 cf 64 3b 90 ce d8 3e d4 67 2c be 7d 1a 49 bc
       0.003491387 0.42345095 -0.16836482 -0.012274382
0001e0 8f 23 0e 3e aa 3e 46 3d 31 44 7f 3e 2a b3 01 3d
       0.13880752 0.048399605 0.24928357 0.031665005
0001f0 f8 52 d5 3e fd 81 01 bf c7 cc b8 3d 8b 4a 09 3d
       0.41664863 -0.5058897 0.09023433 0.033518355
000200 ef 1e 74 3e 7b c5 6f 3d 95 f4 13 3d 7c 4b c2 be
       0.23839925 0.05853794 0.036121923 -0.37948215
000210 ca 24 9b 32 83 97 a9 be 51 0e cd b4 f8 5d a5 37
       1.8061105e-08 -0.33123407 -3.8194642e-07 1.971329e-05
000220 08 87 53 bb ef bd de a6 cf af 58 be e3 8d 5e bd
       -0.003227653 -1.5455826e-15 -0.21160816 -0.054334532
000230 5c 6c 4d 3d 76 6a b8 a9 5c 82 5b be 1c bd 54 be
       0.050152168 -8.1897095e-14 -0.21436447 -0.20775265
000240 52 1f d5 bd 41 20 4e 3b d2 fa 84 b0 96 07 5d bc
       -0.104063645 0.003145233 -9.675551e-10 -0.013490578
000250 63 07 da 3d 7a 47 d2 be 10 81 34 bd 10 a7 1b 3e
       0.1064594 -0.41070157 -0.044068396 0.15200448
000260 06 b1 a2 3e 09 d4 89 3d 10 eb 96 bb 84 61 25 3c
       0.31775683 0.067298956 -0.0046056584 0.01009405
000270 aa fe 4e be 82 c5 bf 34 9b 46 fd 3e 87 bd 9b 3a
       -0.20214334 3.5720228e-07 0.4946793 0.0011882045
000280 45 c5 82 bd 25 4d 97 2e b1 50 34 3b af 76 ce 3c
       -0.063852824 6.8803886e-11 0.0027513916 0.025203077
000290 2b 5f 85 ba 22 95 0d bf df de 8e 3e d9 c3 6b be
       -0.0010175457 -0.55305684 0.27904412 -0.23023929
0002a0 4b 40 69 be 56 7f 37 bf 91 96 9e 31 cf 75 5f 3c
       -0.22778432 -0.71678674 4.6155226e-09 0.013638928
0002b0 21 a7 75 b8 57 91 28 be 9d a9 96 3e ef 5b 00 be
       -5.8568203e-05 -0.16461693 0.2942628 -0.1253507
0002c0 bc 09 3a 3e e5 21 a6 ba 41 a5 85 be 38 84 d5 3d
       0.18167776 -0.0012674896 -0.2610264 0.10425609
0002d0 e9 22 0e bf 20 b3 0b 3e 09 da 49 3b c6 cc 12 bf
       -0.5552202 0.1364255 0.0030800125 -0.5734371
0002e0 2a 49 d8 b9 52 fd e2 bb 8e f2 98 be 7a a6 53 3e
       -0.00041253242 -0.006927171 -0.29872555 0.20668975
0002f0 23 32 ff be 1d 59 10 bb 67 c6 4c be fa 74 93 be
       -0.4984294 -0.0022025772 -0.1999756 -0.28800184
000300 66 6d 39 bd b7 68 d5 3d 21 e8 aa 3d b8 e9 1c be
       -0.045270346 0.104203634 0.08345056 -0.15323532
000310 1c 8b 98 3e 6e bc 05 00 5d 52 6e 3a 93 b2 a0 3b
       0.29793632 5.26773e-40 0.00090912526 0.0049041
000320 ca c6 08 bc ac 5e 01 3e e6 a2 af bc 26 02 92 bc
       -0.008348176 0.1263377 -0.02143998 -0.01782329
000330 f5 49 11 3e db d3 4f 3c 55 55 e6 be 4e b4 b4 be
       0.14188369 0.012684788 -0.44986978 -0.35293812
000340 92 b4 08 bf 97 a2 df 3d ac 9d a2 be b1 b3 90 3b
       -0.5340053 0.109196834 -0.3176092 0.004415952
000350 62 82 5b 3e 19 dc 8a 3e 2c 01 10 bc 93 72 84 3d
       0.21436456 0.27121046 -0.008789342 0.06467166
000360 2b 0b d8 b5 75 2a 32 3c a7 5f e5 b5 7b 99 9d 3b
       -1.6096504e-06 0.01087438 -1.7089668e-06 0.004809556
000370 4d 77 6a bd 79 c5 37 b2 1c ae a2 3d c6 0a 83 3e
       -0.05724268 -1.0696902e-08 0.07943365 0.25594157
000380 e7 11 c1 be 1e 6f 2c ac 20 eb 29 3e 2a 08 73 3e
       -0.3770897 -2.4504353e-12 0.165936 0.23733583
000390 00 61 60 3d 1a dd 13 3b 13 b7 50 b9 c3 8b 3c 3d
       0.054780006 0.0022562207 -0.00019904626 0.046031725
0003a0 aa 52 eb 3d 85 02 6a 3e 7e 7b 00 bc de a8 23 3e
       0.11490376 0.22852524 -0.007841943 0.15982386
0003b0 a8 91 0b bf d0 27 2b 3e 9f 2a 51 3a 52 69 e7 39
       -0.5451913 0.16714406 0.00079790683 0.00044138223
0003c0 af eb d7 3e b7 08 97 b8 d8 54 a7 be c0 86 51 bb
       0.42172 -7.201864e-05 -0.32681918 -0.0031971186
0003d0 b7 d3 83 3c d9 c8 f3 37 02 0c 85 3d c2 5d 05 bc
       0.016092164 2.9061384e-05 0.06496431 -0.008140029
0003e0 81 c1 6e 3b f3 8a 2b be be 38 6b 3e 65 e2 a0 be
       0.0036431255 -0.16752224 0.22970864 -0.31422725
0003f0 8d 5c 8d 3e d9 ab 60 be 2a ab 3f b0 bb cb 94 3b
       0.27609673 -0.21940555 -6.9728634e-10 0.004540888

fully_connected2.bias f4 [10]
000000 d5 42 92 3d 5a 91 83 bd 5f 77 b8 bd 13 05 1a 3d
       0.071416534 -0.06424208 -0.09007143 0.037602495
000010 9a 35 b5 bd d8 c9 07 be cf d6 28 be 16 ee 94 bd
       -0.08848114 -0.13260591 -0.16488193 -0.07271974
000020 14 ce b2 3e 81 19 0e 3d
       0.3492285 0.03469229
